…
rad():\n            tst_loss, tot_acc, tst_count = 0.0, 0.0, 0\n            for xb, _ in progress(valid_dl):\n                xb = to_device(xb)\n                pred = model(xb)\n                bs, *_ = xb.shape\n                tst_count += bs\n                tst_loss += loss_func(pred, xb).item() * bs\n\n        print(\n            f\"{epoch=}: trn_loss={trn_loss / trn_count:.3f}, tst_loss={tst_loss / tst_count:.3f}\"\n        )\n\n\nsource\n\n\nget_model\n\n get_model ()\n\n\nautoencoder = get_model()\nautoencoder\n\nSequential(\n  (0): ZeroPad2d((2, 2, 2, 2))\n  (1): Sequential(\n    (0): Conv2d(1, 2, kernel_size=(3, 3), stride=(2, 2), padding=(1, 1))\n    (1): ReLU()\n  )\n  (2): Sequential(\n    (0): Conv2d(2, 4, kernel_size=(3, 3), stride=(2, 2), padding=(1, 1))\n    (1): ReLU()\n  )\n  (3): Sequential(\n    (0): Conv2d(4, 8, kernel_size=(3, 3), stride=(2, 2), padding=(1, 1))\n    (1): ReLU()\n  )\n  (4): Sequential(\n    (0): UpsamplingNearest2d(scale_factor=2.0, mode='nearest')\n    (1): Conv2d(8, 4, kernel_size=(3, 3), stride=(1, 1), padding=(1, 1))\n    (2): ReLU()\n  )\n  (5): Sequential(\n    (0): UpsamplingNearest2d(scale_factor=2.0, mode='nearest')\n    (1): Conv2d(4, 2, kernel_size=(3, 3), stride=(1, 1), padding=(1, 1))\n    (2): ReLU()\n  )\n  (6): Sequential(\n    (0): UpsamplingNearest2d(scale_factor=2.0, mode='nearest')\n    (1): Conv2d(2, 1, kernel_size=(3, 3), stride=(1, 1), padding=(1, 1))\n  )\n  (7): ZeroPad2d((-2, -2, -2, -2))\n  (8): Sigmoid()\n)\n\n\n\nwith fashion_mnist() as (_, tst_dl):\n    xb, _ = next(iter(tst_dl))\n\n\nassert xb.shape == autoencoder(xb.to(def_device)).shape\n\n\nmodel = get_model()\nwith fashion_mnist() as dls:\n    opt = optim.AdamW(model.parameters(), lr=0.01)\n    fit(10, model, F.mse_loss, opt, 
…
1, act=None),  # 32x32\n            nn.BatchNorm2d(1),\n            nn.ZeroPad2d(padding=-2),  # 28x28\n            nn.Sigmoid(),\n        ])\n    \n    def forward(self, x):\n        for layer in self.encoder:\n            x = layer(x)\n        for layer in self.decoder:\n            x = layer(x)\n        return x\n\ndef get_autoencoder(initialize=True):\n    ae = Autoencoder()\n    if initialize:\n        ae.apply(apply_leaky_weights)\n    return ae\n    \nmodel = get_autoencoder()\nmodel\n\nAutoencoder(\n  (encoder): ModuleList(\n    (0): ZeroPad2d((2, 2, 2, 2))\n    (1): Conv(\n      (conv): Conv2d(1, 2, kernel_size=(5, 5), stride=(2, 2), padding=(2, 2))\n      (act): JReLU()\n    )\n    (2): BatchNorm2d(2, eps=1e-05, momentum=0.1, affine=True, track_running_stats=True)\n    (3): Conv(\n      (conv): Conv2d(2, 4, kernel_size=(3, 3), stride=(2, 2), padding=(1, 1))\n      (act): JReLU()\n    )\n    (4): BatchNorm2d(4, eps=1e-05, momentum=0.1, affine=True, track_running_stats=True)\n    (5): Conv(\n      (conv): Conv2d(4, 8, kernel_size=(3, 3), stride=(2, 2), padding=(1, 1))\n      (act): JReLU()\n    )\n    (6): BatchNorm2d(8, eps=1e-05, momentum=0.1, affine=True, track_running_stats=True)\n  )\n  (decoder): ModuleList(\n    (0): Deconv(\n      (upsample): UpsamplingNearest2d(scale_factor=2.0, mode='nearest')\n      (conv): Conv2d(8, 4, kernel_size=(3, 3), stride=(1, 1), padding=(1, 1))\n      (act): JReLU()\n    )\n    (1): BatchNorm2d(4, eps=1e-05, momentum=0.1, affine=True, track_running_stats=True)\n    (2): Deconv(\n      (upsample): UpsamplingNearest2d(scale_factor=2.0, mode='nearest')\n      (conv): Conv2d(4, 2, kernel_size=(3, 3), stride=(1, 1), padding=(1, 1))\n      (act): JReLU()\n    )\n    (3): BatchNorm2d(2, eps=1e-05, momentum=0.1, affine=True, track_running_stats=True)\n    (4): Deconv(\n      (upsample): UpsamplingNearest2d(scale_factor=2.0, mode='nearest')\n      (conv): Conv2d(2, 1, kernel_size=(3, 3), stride=(1, 1), padding=(1, 1))\n    )\n    (5): ZeroPad2d((-2, -2, -2, -2))\n    (6): Sigmoid()\n  )\n)\n\n\n\ndls = fashion_mnist(256)\nxb, _ = dls.peek()\nxb.shape, model(xb).shape\n\n(torch.Size([256, 1, 28, 28]), torch.Size([256, 1, 28, 28]))\n\n\n\nclass AutoencoderLearner(TrainLearner):\n    def get_loss(self):\n        xb, _ = self.batch\n        self.loss = F.mse_
…
