…
rad():\n            tst_loss, tot_acc, tst_count = 0.0, 0.0, 0\n            for xb, _ in progress(valid_dl):\n                xb = to_device(xb)\n                pred = model(xb)\n                bs, *_ = xb.shape\n                tst_count += bs\n                tst_loss += loss_func(pred, xb).item() * bs\n\n        print(\n            f\"{epoch=}: trn_loss={trn_loss / trn_count:.3f}, tst_loss={tst_loss / tst_count:.3f}\"\n        )\n\n\nsource\n\n\nget_model\n\n get_model ()\n\n\nautoencoder = get_model()\nautoencoder\n\nSequential(\n  (0): ZeroPad2d((2, 2, 2, 2))\n  (1): Sequential(\n    (0): Conv2d(1, 2, kernel_size=(3, 3), stride=(2, 2), padding=(1, 1))\n    (1): ReLU()\n  )\n  (2): Sequential(\n    (0): Conv2d(2, 4, kernel_size=(3, 3), stride=(2, 2), padding=(1, 1))\n    (1): ReLU()\n  )\n  (3): Sequential(\n    (0): Conv2d(4, 8, kernel_size=(3, 3), stride=(2, 2), padding=(1, 1))\n    (1): ReLU()\n  )\n  (4): Sequential(\n    (0): UpsamplingNearest2d(scale_factor=2.0, mode='nearest')\n    (1): Conv2d(8, 4, kernel_size=(3, 3), stride=(1, 1), padding=(1, 1))\n    (2): ReLU()\n  )\n  (5): Sequential(\n    (0): UpsamplingNearest2d(scale_factor=2.0, mode='nearest')\n    (1): Conv2d(4, 2, kernel_size=(3, 3), stride=(1, 1), padding=(1, 1))\n    (2): ReLU()\n  )\n  (6): Sequential(\n    (0): UpsamplingNearest2d(scale_factor=2.0, mode='nearest')\n    (1): Conv2d(2, 1, kernel_size=(3, 3), stride=(1, 1), padding=(1, 1))\n  )\n  (7): ZeroPad2d((-2, -2, -2, -2))\n  (8): Sigmoid()\n)\n\n\n\nwith fashion_mnist() as (_, tst_dl):\n    xb, _ = next(iter(tst_dl))\n\n\nassert xb.shape == autoencoder(xb.to(def_device)).shape\n\n\nmodel = get_model()\nwith fashion_mnist() as dls:\n    opt = optim.AdamW(model.parameters(), lr=0.01)\n    fit(10, model, F.mse_loss, opt, 
…
1,\n)\nshow_images([denoise, img])\nshow_images([i.clip(0, 1) for i in intermediates], figsize=(6, 6))\nThis isn’t interesting on its own, but starts to become interesting when we incorporate the pretrained feature extractors such as VGG16. This gives us a richer representation than the raw pixels that we can manipulate.\nHere is a classic article on the discriminative features that these models learn.\nVGG16 is similar to the pre-resnet model we implemented for FashionMNIST.\nvgg16 = timm.create_model(\"vgg16\", pretrained=True).to(def_device)\nvgg16\n\nVGG(\n  (features): Sequential(\n    (0): Conv2d(3, 64, kernel_size=(3, 3), stride=(1, 1), padding=(1, 1))\n    (1): ReLU(inplace=True)\n    (2): Conv2d(64, 64, kernel_size=(3, 3), stride=(1, 1), padding=(1, 1))\n    (3): ReLU(inplace=True)\n    (4): MaxPool2d(kernel_size=2, stride=2, padding=0, dilation=1, ceil_mode=False)\n    (5): Conv2d(64, 128, kernel_size=(3, 3), stride=(1, 1), padding=(1, 1))\n    (6): ReLU(inplace=True)\n    (7): Conv2d(128, 128, kernel_size=(3, 3), stride=(1, 1), padding=(1, 1))\n    (8): ReLU(inplace=True)\n    (9): MaxPool2d(kernel_size=2, stride=2, padding=0, dilation=1, ceil_mode=False)\n    (10): Conv2d(128, 256, kernel_size=(3, 3), stride=(1, 1), padding=(1, 1))\n    (11): ReLU(inplace=True)\n    (12): Conv2d(256, 256, kernel_size=(3, 3), stride=(1, 1), padding=(1, 1))\n    (13): ReLU(inplace=True)\n    (14): Conv2d(256, 256, kernel_size=(3, 3), stride=(1, 1), padding=(1, 1))\n    (15): ReLU(inplace=True)\n    (16): MaxPool2d(kernel_size=2, stride=2, padding=0, dilation=1, ceil_mode=False)\n    (17): Conv2d(256, 512, kernel_size=(3, 3), stride=(1, 1), padding=(1, 1))\n    (18): ReLU(inplace=True)\n    (19): Conv2d(512, 512, kernel_size=(3, 3), stride=(1, 1), padding=(1, 1))\n    (20): ReLU(inplace=True)\n    (21): Conv2d(512, 512, kernel_size=(3, 3), stride=(1, 1), padding=(1, 1))\n    (22): ReLU(inplace=True)\n    (23): MaxPool2d(kernel_size=2, stride=2, padding=0, dilation=1, ceil_mode=False)\n    (24): Conv2d(512, 512, kernel_size=(3, 3), stride=(1, 1), padding=(1, 1))\n    (25): ReLU(inplace=True)\n    (26): Conv2d(512, 512, kernel_size=(3, 3), stride=(1, 1), padding=(1, 1))\n    (27): ReLU(inplace=True)\n    (28): Conv2d(512, 512, kernel_size=(3, 3), stride=(1, 1), padding=(1, 1))\n    (29): ReLU(inplace=True)\n    (30): MaxPool2d(kernel_size=2, stride=2, padding=0, dilation=1, ceil_mode=False)\n  )\n  (pre_logits): ConvMlp(\n    (fc1): Conv2d(512, 4096, kernel_size=(7, 7), stride=(1, 1))\n    (act1): ReLU(inplace=True)\n    (drop): Dropout(p=0.0, inplace=False)\n    (fc2): Conv2d(4096, 4096, kernel_size=(1, 1), stride=(1, 1))\n    (act2): ReLU(inplace=True)\n  )\n  (head): ClassifierHead(\n    (global_pool): SelectAdaptivePool2d(pool_type=avg, flatten=Flatten(start_dim=1, end_dim=-1))\n    (drop): Dropout(p=0.0, inplace=False)\n    (fc): Linear(in_features=4096, out_features=1000, bias=True)\n    (flatten): Identity()\n  )\n)\nTo use VGG16, we need to normalize for each color channel with the same constants that the model was trained with.\ndef normalize_imagenet(img):\n    i = img.clone()\n    i -= imagenet_mean[:, None, None]\n    i /= imagenet_std[:, None, None]\n    return i\nimg.shape\n\ntorch.Size([3, 256, 256])\nnimg = normalize_imagenet(img)\nshow_image(nimg.clip(0, 1))\nWe can also use the PyTorch version\nshow_image(pt_normalize_imagenet(img).clip(0, 1));\nSo, how do we use this normalized image to extract their features?\nsource",
…
    "text": "Gram Loss\nWe don’t want to just transfer the spatial feature maps. We want something more abstract: style.\nThis is where the Gram matrix comes in. The gram matrix uses an intermediate represention, \\(X\\), where the magnitude of a feature basis is the row and the pixel ID in the column. By taking \\(X \\cdot X^T\\), we get the covariance matrix of the feature activations, which we call the Gram matrix.\n\nPaper here.\n\nsource\n\ncalculate_grams_vgg16\n\n calculate_grams_vgg16 (vgg16, imgs, target_layers=(18, 25))\n\n\nsource\n\n\nGramLoss\n\n GramLoss (target_img, target_layers=(18, 25), vgg=VGG(   (features):\n           Sequential(     (0): Conv2d(3, 64, kernel_size=(3, 3),\n           stride=(1, 1), padding=(1, 1))     (1): ReLU(inplace=True)\n           (2): Conv2d(64, 64, kernel_size=(3, 3), stride=(1, 1),\n           padding=(1, 1))     (3): ReLU(inplace=True)     (4):\n           MaxPool2d(kernel_size=2, stride=2, padding=0, dilation=1,\n           ceil_mode=False)     (5): Conv2d(64, 128, kernel_size=(3, 3),\n           stride=(1, 1), padding=(1, 1))     (6): ReLU(inplace=True)\n           (7): Conv2d(128, 128, kernel_size=(3, 3), stride=(1, 1),\n           padding=(1, 1))     (8): ReLU(inplace=True)     (9):\n           MaxPool2d(kernel_size=2, stride=2, padding=0, dilation=1,\n           ceil_mode=False)     (10): Conv2d(128, 256, kernel_size=(3, 3),\n           stride=(1, 1), padding=(1, 1))     (11): ReLU(inplace=True)\n           (12): Conv2d(256, 256, kernel_size=(3, 3), stride=(1, 1),\n           padding=(1, 1))     (13): ReLU(inplace=True)     (14):\n           Conv2d(256, 256, kernel_size=(3, 3), stride=(1, 1), padding=(1,\n           1))     (15): ReLU(inplace=True)     (16):\n           MaxPool2d(kernel_size=2, stride=2, padding=0, dilation=1,\n           ceil_mode=False)     (17): Conv2d(256, 512, kernel_size=(3, 3),\n           stride=(1, 1), padding=(1, 1))     (18): ReLU(inplace=True)\n           (19): Conv2d(512, 512, kernel_size=(3, 3), stride=(1, 1),\n           padding=(1, 1))     (20): ReLU(inplace=True)     (21):\n           Conv2d(512, 512, kernel_size=(3, 3), stride=(1, 1), padding=(1,\n           1))     (22): ReLU(inplace=True)     (23):\n           MaxPool2d(kernel_size=2, stride=2, padding=0, dilation=1,\n           ceil_mode=False)     (24): Conv2d(512, 512, kernel_size=(3, 3),\n           stride=(1, 1), padding=(1, 1))     (25): ReLU(inplace=True)\n           (26): Conv2d(512, 512, kernel_size=(3, 3), stride=(1, 1),\n           padding=(1, 1))     (27): ReLU(inplace=True)     (28):\n           Conv2d(512, 512, kernel_size=(3, 3), stride=(1, 1), padding=(1,\n           1))     (29): ReLU(inplace=True)     (30):\n           MaxPool2d(kernel_size=2, stride=2, padding=0, dilation=1,\n           ceil_mode=False)   )   (pre_logits): ConvMlp(     (fc1):\n           Conv2d(512, 4096, kernel_size=(7, 7), stride=(1, 1))\n           (act1): ReLU(inplace=True)     (drop): Dropout(p=0.0,\n           inplace=False)     (fc2): Conv2d(4096, 4096, kernel_size=(1,\n           1), stride=(1, 1))     (act2): ReLU(inplace=True)   )   (head):\n           ClassifierHead(     (global_pool):\n           SelectAdaptivePool2d(pool_type=avg,\n           flatten=Flatten(start_dim=1, end_dim=-1))     (drop):\n           Dropout(p=0.0, inplace=False)     (fc):\n           Linear(in_features=4096, out_features=1000, bias=True)\n           (flatten): Identity()   ) ))\n\nInitialize self. See help(type(self)) for accurate signature.\n\n\n\n\n\n\n\n\n\n\nType\nDefault\nDetails\n\n\n\n\ntarget_img\n\n\n\n\n\ntarget_layers\ntuple\n(18, 25)\nout of 30\n\n\nvgg\nVGG\nVGG( (features): Sequential( (0): Conv2d(3, 64, kernel_size=(3, 3), stride=(1, 1), padding=(1, 1)) (1): ReLU(inplace=True) (2): Conv2d(64, 64, kernel_size=(3, 3), stride=(1, 1), padding=(1, 1)) (3): ReLU(inplace=True) (4): MaxPool2d(kernel_size=2, stride=2, padding=0, dilation=1, ceil_mode=False) (5): Conv2d(64, 128, kernel_size=(3, 3), stride=(1, 1), padding=(1, 1)) (6): ReLU(inplace=True) (7): Conv2d(128, 128, kernel_size=(3, 3), stride=(1, 1), padding=(1, 1)) (8): ReLU(inplace=True) (9): MaxPool2d(kernel_size=2, stride=2, padding=0, dilation=1, ceil_mode=False) (10): Conv2d(128, 256, kernel_size=(3, 3), stride=(1, 1), padding=(1, 1)) (11): ReLU(inplace=True) (12): Conv2d(256, 256, kernel_size=(3, 3), stride=(1, 1), padding=(1, 1)) (13): ReLU(inplace=True) (14): Conv2d(256, 256, kernel_size=(3, 3), stride=(1, 1), padding=(1, 1)) (15): ReLU(inplace=True) (16): MaxPool2d(kernel_size=2, stride=2, padding=0, dilation=1, ceil_mode=False) (17): Conv2d(256, 512, kernel_size=(3, 3), stride=(1, 1), padding=(1, 1)) (18): ReLU(inplace=True) (19): Conv2d(512, 512, kernel_size=(3, 3), stride=(1, 1), padding=(1, 1)) (20): ReLU(inplace=True) (21): Conv2d(512, 512, kernel_size=(3, 3), stride=(1, 1), padding=(1, 1)) (22): ReLU(inplace=True) (23): MaxPool2d(kernel_size=2, stride=2, padding=0, dilation=1, ceil_mode=False) (24): Conv2d(512, 512, kernel_size=(3, 3), stride=(1, 1), padding=(1, 1)) (25): ReLU(inplace=True) (26): Conv2d(512, 512, kernel_size=(3, 3), stride=(1, 1), padding=(1, 1)) (27): ReLU(inplace=True) (28): Conv2d(512, 512, kernel_size=(3, 3), stride=(1, 1), padding=(1, 1)) (29): ReLU(inplace=True) (30): MaxPool2d(kernel_size=2, stride=2, padding=0, dilation=1, ceil_mode=False) ) (pre_logits): ConvMlp( (fc1): Conv2d(512, 4096, kernel_size=(7, 7), stride=(1, 1)) (act1): ReLU(inplace=True) (drop): Dropout(p=0.0, inplace=False) (fc2): Conv2d(4096, 4096, kernel_size=(1, 1), stride=(1, 1)) (act2): ReLU(inplace=True) ) (head): ClassifierHead( (global_pool): SelectAdaptivePool2d(pool_type=avg, flatten=Flatten(start_dim=1, end_dim=-1)) (drop): Dropout(p=0.0, inplace=False) (fc): Linear(in_features=4096, out_features=1000, bias=True) (flatten): Identity() ))\n\n\n\n\n\ndef optimize_gram_to_target(\n    noise_model,\n    n,\n    target,\n    lr=0.001,\n    epochs=5,\n    target_layers=(18, 25),\n):\n    intermediates = []\n    for _ in range(epochs):\n        TrainLearner(\n            noise_model,\n            get_dls(n // epochs),\n            GramLoss(target, target_layers=targ
…
 summarize(img_eval_fisher.featurize(xb_real_fisher_trn))\nμh, Σh = summarize(img_eval_howard.featurize(xb_real_howard_trn))\nμf.mean(), μh.mean(), Σf.sum(), Σh.sum()\n\n(tensor(0.2282, device='cuda:0'),\n tensor(0.1809, device='cuda:0'),\n tensor(2884.9214, device='cuda:0'),\n tensor(1464.5806, device='cuda:0'))\n\n\n\nx = clf_fisher.layers[-1](torch.randn(1, 512, 1, 1).to(def_device))\nx.shape\n\ntorch.Size([1, 512, 1, 1])\n\n\n\n(clf_fisher.pool(x) == x.squeeze()).all()\n\ntensor(True, device='cuda:0')\n\n\n\nclf_howard[5]\n\nResBlock(\n  (convs): Sequential(\n    (0): Sequential(\n      (0): Conv2d(256, 512, kernel_size=(3, 3), stride=(1, 1), padding=(1, 1))\n      (1): BatchNorm2d(512, eps=1e-05, momentum=0.1, affine=True, track_running_stats=True)\n      (2): GeneralRelu()\n    )\n    (1): Sequential(\n      (0): Conv2d(512, 512, kernel_size=(3, 3), stride=(2, 2), padding=(1, 1))\n      (1): BatchNorm2d(512, eps=1e-05, momentum=0.1, affine=True, track_running_stats=True)\n    )\n  )\n  (idconv): Sequential(\n    (0): Conv2d(256, 512, kernel_size=(1, 1), stride=(1, 1))\n  )\n  (pool): AvgPool2d(kernel_size=2, stride=2, padding=0)\n  (act): GeneralRelu()\n)",
    "crumbs": [
      "Fréchet inception distance"
    ]
  },
  {
    "objectID": "imagenet_diffusion_unet.html",
    "href": "imagenet_diffusion_unet.html",
    "title": "Scaling up U-net diffusion",
    "section": "",
    "text": "Adapted from: - https://www.you
…
